…
 your Google Colab and restart your session.\n","You will be able to reuse this secret in all of your notebooks.\n","Please note that authentication is recommended but still optional to access public models or datasets.\n","  warnings.warn(\n"]},{"data":{"application/vnd.jupyter.widget-view+json":{"model_id":"982f2c4e64b2494b84122de9d7c14dee","version_major":2,"version_minor":0},"text/plain":["model.safetensors:   0%|          | 0.00/346M [00:00\u003c?, ?B/s]"]},"metadata":{},"output_type":"display_data"},{"data":{"text/plain":["VisionTransformer(\n","  (patch_embed): PatchEmbed(\n","    (proj): Conv2d(3, 768, kernel_size=(16, 16), stride=(16, 16))\n","    (norm): Identity()\n","  )\n","  (pos_drop): Dropout(p=0.0, inplace=False)\n","  (patch_drop): Identity()\n","  (norm_pre): Identity()\n","  (blocks): Sequential(\n","    (0): Block(\n","      (norm1): LayerNorm((768,), eps=1e-06, elementwise_affine=True)\n","      (attn): Attention(\n","        (qkv): Linear(in_features=768, out_features=2304, bias=True)\n","        (q_norm): Identity()\n","        (k_norm): Identity()\n","        (attn_drop): Dropout(p=0.0, inplace=False)\n","        (norm): Identity()\n","        (proj): Linear(in_features=768, out_features=768, bias=True)\n","        (proj_drop): Dropout(p=0.0, inplace=False)\n","      )\n","      (ls1): Identity()\n","      (drop_path1): Identity()\n","      (norm2): LayerNorm((768,), eps=1e-06, elementwise_affine=True)\n","      (mlp): Mlp(\n","        (fc1): Linear(in_features=768, out_features=3072, bias=True)\n","        (act): GELU(approximate='none')\n","        (drop1): Dropout(p=0.0, inplace=False)\n","        (norm): Identity()\n","        (fc2): Linear(in_features=3072, out_features=768, bias=True)\n","        (drop2): Dropout(p=0.0, inplace=False)\n","      )\n","      (ls2): Identity()\n","      (drop_path2): Identity()\n","    )\n","    (1): Block(\n","      (norm1): LayerNorm((768,), eps=1e-06, elementwise_affine=True)\n","      (attn): Attention(\n","        (qkv): Linear(in_features=768, out_features=2304, bias=True)\n","        (q_norm): Identity()\n","        (k_norm): Identity()\n","        (attn_drop): Dropout(p=0.0, inplace=False)\n","        (norm): Identity()\n","        (proj): Linear(in_features=768, out_features=768, bias=True)\n","        (proj_drop): Dropout(p=0.0, inplace=False)\n","      )\n","      (ls1): Identity()\n","      (drop_path1): Identity()\n","      (norm2): LayerNorm((768,), eps=1e-06, elementwise_affine=True)\n","      (mlp): Mlp(\n","        (fc1): Linear(in_features=768, out_features=3072, bias=True)\n","        (act): GELU(approximate='none')\n","        (drop1): Dropout(p=0.0, inplace=False)\n","        (norm): Identity()\n","        (fc2): Linear(in_features=3072, out_features=768, bias=True)\n","        (drop2): Dropout(p=0.0, inplace=False)\n","      )\n","      (ls2): Identity()\n","      (drop_path2): Identity()\n","    )\n","    (2): Block(\n","      (norm1): LayerNorm((768,), eps=1e-06, elementwise_affine=True)\n","      (attn): Attention(\n","        (qkv): Linear(in_features=768, out_features=2304, bias=True)\n","        (q_norm): Identity()\n","        (k_norm): Identity()\n","        (attn_drop): Dropout(p=0.0, inplace=False)\n","        (norm): Identity()\n","        (proj): Linear(in_features=768, out_features=768, bias=True)\n","        (proj_drop): Dropout(p=0.0, inplace=False)\n","      )\n","      (ls1): Identity()\n","      (drop_path1): Identity()\n","      (norm2): LayerNorm((768,), eps=1e-06, elementwise_affine=True)\n","      (mlp): Mlp(\n","        (fc1): Linear(in_features=768, out_features=3072, bias=True)\n","        (act): GELU(approximate='none')\n","        (drop1): Dropout(p=0.0, inplace=False)\n","        (norm): Identity()\n","        (fc2): Linear(in_features=3072, out_features=768, bias=True)\n","        (drop2): Dropout(p=0.0, inplace=False)\n","      )\n","      (ls2): Identity()\n","      (drop_path2): Identity()\n","    )\n","    (3): Block(\n","      (norm1): LayerNorm((768,), eps=1e-06, elementwise_affine=True)\n","      (attn): Attention(\n","        (qkv): Linear(in_features=768, out_features=2304, bias=True)\n","        (q_norm): Identity()\n","        (k_norm): Identity()\n","        (attn_drop): Dropout(p=0.0, inplace=False)\n","        (norm): Identity()\n","        (proj): Linear(in_features=768, out_features=768, bias=True)\n","        (proj_drop): Dropout(p=0.0, inplace=False)\n","      )\n","      (ls1): Identity()\n","      (drop_path1): Identity()\n","      (norm2): LayerNorm((768,), eps=1e-06, elementwise_affine=True)\n","      (mlp): Mlp(\n","        (fc1): Linear(in_features=768, out_features=3072, bias=True)\n","        (act): GELU(approximate='none')\n","        (drop1): Dropout(p=0.0, inplace=False)\n","        (norm): Identity()\n","        (fc2): Linear(in_features=3072, out_features=768, bias=True)\n","        (drop2): Dropout(p=0.0, inplace=False)\n","      )\n","      (ls2): Identity()\n","      (drop_path2): Identity()\n","    )\n","    (4): Block(\n","      (norm1): LayerNorm((768,), eps=1e-06, elementwise_affine=True)\n","      (attn): Attention(\n","        (qkv): Linear(in_features=768, out_features=2304, bias=True)\n","        (q_norm): Identity()\n","        (k_norm): Identity()\n","        (attn_drop): Dropout(p=0.0, inplace=False)\n","        (norm): Identity()\n","        (proj): Linear(in_features=768, out_features=768, bias=True)\n","        (proj_drop): Dropout(p=0.0, inplace=False)\n","      )\n","      (ls1): Identity()\n","      (drop_path1): Identity()\n","      (norm2): LayerNorm((768,), eps=1e-06, elementwise_affine=True)\n","      (mlp): Mlp(\n","        (fc1): Linear(in_features=768, out_features=3072, bias=True)\n","        (act): GELU(approximate='none')\n","        (drop1): Dropout(p=0.0, inplace=False)\n","        (norm): Identity()\n","        (fc2): Linear(in_features=3072, out_features=768, bias=True)\n","        (drop2): Dropout(p=0.0, inplace=False)\n","      )\n","      (ls2): Identity()\n","      (drop_path2): Identity()\n","    )\n","    (5): Block(\n","      (norm1): LayerNorm((768,), eps=1e-06, elementwise_affine=True)\n","      (attn): Attention(\n","        (qkv): Linear(in_features=768, out_features=2304, bias=True)\n","        (q_norm): Identity()\n","        (k_norm): Identity()\n","        (attn_drop): Dropout(p=0.0, inplace=False)\n","        (norm): Identity()\n","        (proj): Linear(in_features=768, out_features=768, bias=True)\n","        (proj_drop): Dropout(p=0.0, inplace=False)\n","      )\n","      (ls1): Identity()\n","      (drop_path1): Identity()\n","      (norm2): LayerNorm((768,), eps=1e-06, elementwise_affine=True)\n","      (mlp): Mlp(\n","        (fc1): Linear(in_features=768, out_features=3072, bias=True)\n","        (act): GELU(approximate='none')\n","        (drop1): Dropout(p=0.0, inplace=False)\n","        (norm): Identity()\n","        (fc2): Linear(in_features=3072, out_features=768, bias=True)\n","        (drop2): Dropout(p=0.0, inplace=False)\n","      )\n","      (ls2): Identity()\n","      (drop_path2): Identity()\n","    )\n","    (6): Block(\n","      (norm1): LayerNorm((768,), eps=1e-06, elementwise_affine=True)\n","      (attn): Attention(\n","        (qkv): Linear(in_features=768, out_features=2304, bias=True)\n","        (q_norm): Identity()\n","        (k_norm): Identity()\n","        (attn_drop): Dropout(p=0.0, inplace=False)\n","        (norm): Identity()\n","        (proj): Linear(in_features=768, out_features=768, bias=True)\n","        (proj_drop): Dropout(p=0.0, inplace=False)\n","      )\n","      (ls1): Identity()\n","      (drop_path1): Identity()\n","      (norm2): LayerNorm((768,), eps=1e-06, elementwise_affine=True)\n","      (mlp): Mlp(\n","        (fc1): Linear(in_features=768, out_features=3072, bias=True)\n","        (act): GELU(approximate='none')\n","        (drop1): Dropout(p=0.0, inplace=False)\n","        (norm): Identity()\n","        (fc2): Linear(in_features=3072, out_features=768, bias=True)\n","        (drop2): Dropout(p=0.0, inplace=False)\n","      )\n","      (ls2): Identity()\n","      (drop_path2): Identity()\n","    )\n","    (7): Block(\n","      (norm1): LayerNorm((768,), eps=1e-06, elementwise_affine=True)\n","      (attn): Attention(\n","        (qkv): Linear(in_features=768, out_features=2304, bias=True)\n","        (q_norm): Identity()\n","        (k_norm): Identity()\n","        (attn_drop): Dropout(p=0.0, inplace=False)\n","        (norm): Identity()\n","        (proj): Linear(in_features=768, out_features=768, bias=True)\n","        (proj_drop): Dropout(p=0.0, inplace=False)\n","      )\n","      (ls1): Identity()\n","      (drop_path1): Identity()\n","      (norm2): LayerNorm((768,), eps=1e-06, elementwise_affine=True)\n","      (mlp): Mlp(\n","        (fc1): Linear(in_features=768, out_features=3072, bias=True)\n","        (act): GELU(approximate='none')\n","        (drop1): Dropout(p=0.0, inplace=False)\n","        (norm): Identity()\n","        (fc2): Linear(in_features=3072, out_features=768, bias=True)\n","        (drop2): Dropout(p=0.0, inplace=False)\n","      )\n","      (ls2): Identity()\n","      (drop_path2): Identity()\n","    )\n","    (8): Block(\n","      (norm1): LayerNorm((768,), eps=1e-06, elementwise_affine=True)\n","      (attn): Attention(\n","        (qkv): Linear(in_features=768, out_features=2304, bias=True)\n","        (q_norm): Identity()\n","        (k_norm): Identity()\n","        (attn_drop): Dropout(p=0.0, inplace=False)\n","        (norm): Identity()\n","        (proj): Linear(in_features=768, out_features=768, bias=True)\n","        (proj_drop): Dropout(p=0.0, inplace=False)\n","      )\n","      (ls1): Identity()\n","      (drop_path1): Identity()\n","      (norm2): LayerNorm((768,), eps=1e-06, elementwise_affine=True)\n","      (mlp): Mlp(\n","        (fc1): Linear(in_features=768, out_features=3072, bias=True)\n","        (act): GELU(approximate='none')\n","        (drop1): Dropout(p=0.0, inplace=False)\n","        (norm): Identity()\n","        (fc2): Linear(in_features=3072, out_features=768, bias=True)\n","        (drop2): Dropout(p=0.0, inplace=False)\n","      )\n","      (ls2): Identity()\n","      (drop_path2): Identity()\n","    )\n","    (9): Block(\n","      (norm1): LayerNorm((768,), eps=1e-06, elementwise_affine=True)\n","      (attn): Attention(\n","        (qkv): Linear(in_features=768, out_features=2304, bias=True)\n","        (q_norm): Identity()\n","        (k_norm): Identity()\n","        (attn_drop): Dropout(p=0.0, inplace=False)\n","        (norm): Identity()\n","        (proj): Linear(in_features=768, out_features=768, bias=True)\n","        (proj_drop): Dropout(p=0.0, inplace=False)\n","      )\n","      (ls1): Identity()\n","      (drop_path1): Identity()\n","      (norm2): LayerNorm((768,), eps=1e-06, elementwise_affine=True)\n","      (mlp): Mlp(\n","        (fc1): Linear(in_features=768, out_features=3072, bias=True)\n","        (act): GELU(approximate='none')\n","        (drop1): Dropout(p=0.0, inplace=False)\n","        (norm): Identity()\n","        (fc2): Linear(in_features=3072, out_features=768, bias=True)\n","        (drop2): Dropout(p=0.0, inplace=False)\n","      )\n","      (ls2): Identity()\n","      (drop_path2): Identity()\n","    )\n","    (10): Block(\n","      (norm1): LayerNorm((768,), eps=1e-06, elementwise_affine=True)\n","      (attn): Attention(\n","        (qkv): Linear(in_features=768, out_features=2304, bias=True)\n","        (q_norm): Identity()\n","        (k_norm): Identity()\n","        (attn_drop): Dropout(p=0.0, inplace=False)\n","        (norm): Identity()\n","        (proj): Linear(in_features=768, out_features=768, bias=True)\n","        (proj_drop): Dropout(p=0.0, inplace=False)\n","      )\n","      (ls1): Identity()\n","      (drop_path1): Identity()\n","      (norm2): LayerNorm((768,), eps=1e-06, elementwise_affine=True)\n","      (mlp): Mlp(\n","        (fc1): Linear(in_features=768, out_features=3072, bias=True)\n","        (act): GELU(approximate='none')\n","        (drop1): Dropout(p=0.0, inplace=False)\n","        (norm): Identity()\n","        (fc2): Linear(in_features=3072, out_features=768, bias=True)\n","        (drop2): Dropout(p=0.0, inplace=False)\n","      )\n","      (ls2): Identity()\n","      (drop_path2): Identity()\n","    )\n","    (11): Block(\n","      (norm1): LayerNorm((768,), eps=1e-06, elementwise_affine=True)\n","      (attn): Attention(\n","        (qkv): Linear(in_features=768, out_features=2304, bias=True)\n","        (q_norm): Identity()\n","        (k_norm): Identity()\n","        (attn_drop): Dropout(p=0.0, inplace=False)\n","        (norm): Identity()\n","        (proj): Linear(in_features=768, out_features=768, bias=True)\n","        (proj_drop): Dropout(p=0.0, inplace=False)\n","      )\n","      (ls1): Identity()\n","      (drop_path1): Identity()\n","      (norm2): LayerNorm((768,), eps=1e-06, elementwise_affine=True)\n","      (mlp): Mlp(\n","        (fc1): Linear(in_features=768, out_features=3072, bias=True)\n","        (act): GELU(approximate='none')\n","        (drop1): Dropout(p=0.0, inplace=False)\n","        (norm): Identity()\n","        (fc2): Linear(in_features=3072, out_features=768, bias=True)\n","        (drop2): Dropout(p=0.0, inplace=False)\n","      )\n","      (ls2): Identity()\n","      (drop_path2): Identity()\n","    )\n","  )\n","  (norm): LayerNorm((768,), eps=1e-06, elementwise_affine=True)\n","  (fc_norm): Identity()\n","  (head_drop): Dropout(p=0.0, inplace=False)\n","  (head): Linear(in_features=768, out_features=1000, bias=True)\n",")"]},"execution_count":10,"metadata":{},"output_type":"execute_result"}],"source":["#Loading ViT Base\n","\n","device = torch.device(\"cuda\" if torch.cuda.is_available() else \"cpu\")\n","model = timm.create_model('vit_base_patch16_224', pretrained=True)\n","model.eval()\n","model.to(device)\n"]},{"cell_type":"code","execution_count":null,"metada
…
